(C:\Users\victorhuang\Anaconda3) C:\Users\victorhuang\Desktop\ML\ML2017FALL\HW\hw3>python train.py
Using TensorFlow backend.
(28709, 48, 48, 1)
_________________________________________________________________
Layer (type)                 Output Shape              Param #
=================================================================
conv2d_1 (Conv2D)            (None, 48, 48, 64)        640
_________________________________________________________________
conv2d_2 (Conv2D)            (None, 48, 48, 64)        36928
_________________________________________________________________
max_pooling2d_1 (MaxPooling2 (None, 24, 24, 64)        0
_________________________________________________________________
conv2d_3 (Conv2D)            (None, 24, 24, 64)        36928
_________________________________________________________________
conv2d_4 (Conv2D)            (None, 24, 24, 64)        36928
_________________________________________________________________
max_pooling2d_2 (MaxPooling2 (None, 12, 12, 64)        0
_________________________________________________________________
conv2d_5 (Conv2D)            (None, 12, 12, 128)       73856
_________________________________________________________________
conv2d_6 (Conv2D)            (None, 12, 12, 128)       147584
_________________________________________________________________
conv2d_7 (Conv2D)            (None, 12, 12, 128)       147584
_________________________________________________________________
max_pooling2d_3 (MaxPooling2 (None, 6, 6, 128)         0
_________________________________________________________________
conv2d_8 (Conv2D)            (None, 6, 6, 256)         295168
_________________________________________________________________
conv2d_9 (Conv2D)            (None, 6, 6, 256)         590080
_________________________________________________________________
conv2d_10 (Conv2D)           (None, 6, 6, 256)         590080
_________________________________________________________________
flatten_1 (Flatten)          (None, 9216)              0
_________________________________________________________________
dense_1 (Dense)              (None, 1024)              9438208
_________________________________________________________________
dropout_1 (Dropout)          (None, 1024)              0
_________________________________________________________________
dense_2 (Dense)              (None, 256)               262400
_________________________________________________________________
dropout_2 (Dropout)          (None, 256)               0
_________________________________________________________________
dense_3 (Dense)              (None, 7)                 1799
=================================================================
Total params: 11,658,183
Trainable params: 11,658,183                                                                                            Non-trainable params: 0                                                                                                 _________________________________________________________________
Ep
…
