Using TensorFlow backend.
_________________________________________________________________
Layer (type)                 Output Shape              Param #
=================================================================
flatten_1 (Flatten)          (None, 2304)              0
_________________________________________________________________
dense_1 (Dense)              (None, 2048)              4720640
_________________________________________________________________
dropout_1 (Dropout)          (None, 2048)              0
_________________________________________________________________
dense_2 (Dense)              (None, 2048)              4196352
_________________________________________________________________
dropout_2 (Dropout)          (None, 2048)              0
_________________________________________________________________
dense_3 (Dense)              (None, 2048)              4196352
_________________________________________________________________
dropout_3 (Dropout)          (None, 2048)              0
_________________________________________________________________
dense_4 (Dense)              (None, 7)                 14343
=================================================================
Total params: 13,127,687
Trainable params: 13,127,687
Non-trainable params: 0
_________________________________________________________________
Train on 25121 samples, validate on 3588 samples
Epoch 1/200
2017-11-17 11:48:46.060438: W C:\tf_jenkins\home\workspace\rel-win\M\windows-gpu\PY\36\tensorflow\core\platform\cpu_feature_guard.cc:45] The TensorFlow library wasn't compiled to use AVX instructions, but these are available on your machine and could speed up CPU computations.
…
